checkpoint.pth (torch_old, 28933 bytes, 7 tensors)

fc1.weight f4 [64, 37]
-0.012293722 0.028972637 -0.10571233 -0.18260774 -0.046321385 0.03620348 0.050343562 -0.09247593
-0.04940158 0.13672718 -0.23127307 0.025899893 0.012958749 -0.17195751 -0.13017705 0.049695067
-0.049288128 0.0021408156 -0.17529419 -0.066770114 0.2253744 -0.045069408 -0.21579924 0.1094053
-0.45996818 0.017638413 0.20058942 -0.28539932 -0.08281971 0.016572688 -0.24996361 0.2124325
0.061182678 -0.21104911 0.02736196 -0.030208874 -0.0125160245 0.14020073 0.08661241 0.04954383
0.07984195 0.07139936 0.15008298 0.029913675 -0.19181706 -0.313174 -0.637536 0.05547072
0.01794732 0.08612318 0.103136204 0.15798701 0.1477481 -0.037657987 0.06357889 0.16899009
0.013474814 0.06822979 -0.12930202 -0.09357169 -0.048019696 -0.03350961 -0.1513836 0.07255876
0.21058185 0.106973365 0.18497676 0.06256194 0.21834318 0.13945712 -0.078884974 -0.15524533
-0.10684117 0.017988067 0.34513307 0.053759027 -0.02319258 -0.24475402 -0.030910246 -0.027811756
-0.13876948 0.23066017 0.10790759 -0.14430095 0.13744245 0.087106735 -0.05087579 -0.23446375
-0.35153264 -0.10630184 0.19848834 0.14973284 -0.19613029 0.09909522 0.20985201 -0.30949494
0.13526644 -0.15598135 -0.6345933 -0.21398929 0.18480681 0.25117603 -0.16735823 -0.19834009
-0.30563766 0.18740186 -0.10126671 -0.09122444 -0.0032165532 0.022776464 -0.024450544 0.19978611
-0.045999292 0.03998594 0.036226854 -0.6043847 0.008936364 -0.181755 0.034846704 0.18331073
0.0546072 0.08313982 -0.27870587 0.06713801 -0.037865873 -0.35393813 -0.060124066 -0.09810721
0.13871166 -0.25673443 -0.1386586 0.03682652 -0.19409952 0.050528895 0.11871685 0.16127859
-0.052674457 -0.018771783 0.04436646 0.12055508 0.28125256 -0.0010796271 0.17756423 0.008503313
-0.04254591 -0.14675236 0.053154353 -0.0019322125 0.12834081 -0.23333842 -0.22835031 -0.24064489
-0.29268447 0.10251284 0.1727516 -0.14337654 -0.1995603 -0.33150867 -0.058977123 -0.02194449
-0.06787039 -0.038732875 -0.06420368 -0.089012474 -0.06809596 -0.022376413 -0.06658275 0.10236461
-0.10225864 -0.054222245 0.01588523 0.14175348 0.16168071 0.039443225 -0.18296446 0.107807785
0.0030243075 0.23354422 0.07403227 -0.21337943 0.06045241 0.14457247 0.45755625 -0.022118876
0.031810895 0.061237153 -0.15058514 -0.063054286 -0.1233165 -0.09799779 0.19238259 0.11807808
-0.5231422 -0.026263125 -1.104494 -0.12231903 -0.09279439 -0.04588631 -0.15409239 -0.04627997
-0.04739655 0.067031525 -0.19909638 -0.053877596 -0.17899346 0.0935999 -0.055061735 0.06478409
-0.026754905 0.04496804 -0.055050325 -0.064746305 0.019572536 -0.02441491 -0.017378327 0.0046781213
-0.09646814 -0.07559273 0.03206838 -0.096507356 0.08736135 0.05148193 0.07876201 -0.13690016
0.0074592335 0.0126955565 -0.039818835 -0.15954223 -0.1572852 0.062139582 0.12487015 0.10911942
-0.018402746 0.20738778 -0.011870422 -0.046957787 0.3528427 -0.15871699 0.0015418355 0.014248129
0.076207876 0.09758534 0.023432165 -0.00074896374 -0.118677564 -0.077744424 -0.2007508 -0.13957109
-0.021125099 -0.014872187 -0.1707121 -0.014084219 -0.013364361 -0.08288592 0.031518232 0.04269738
00000000: 9b6b 49bc 0658 ed3c b57f d8bd 86fd 3abe
00000010: 7ebb 3dbd 1a4a 143d 0d35 4e3d 0564 bdbd
00000020: 5059 4abd 3602 0c3e d9d2 6cbe 032c d43c
00000030: ef50 543c a115 30be 224d 05be 0e8d 4b3d
00000040: 59e2 49bd ed4c 0c3b 5280 33be c5be 88bd
00000050: 8cc8 663e b39a 38bd 7afa 5cbe e30f e03d
00000060: f380 ebbe 6f7e 903c 5067 4d3e dc1f 92be
00000070: 619d a9bd 72c3 873c 76f6 7fbe e887 593e
00000080: b09a 7a3d 421d 58be 3026 e03c 9a78 f7bc
00000090: 0310 4dbc c890 0f3e d961 b13d 79ee 4a3d
000000a0: 2d84 a33d d439 923d 5aaf 193e 860d f53c
000000b0: b16b 44be 5858 a0be 8f35 23bf 4435 633d
000000c0: 4206 933c 5a61 b03d 1339 d33d 59c7 213e
000000d0: 474b 173e 433f 1abd a635 823d bd0b 2d3e
000000e0: 77c5 5c3c 0fbc 8b3d c067 04be 84a2 bfbd
000000f0: 4db0 44bd 5f41 09bd 4d04 1bbe b099 943d
00000100: c5a2 573e da14 db3d 8c6a 3d3e 7920 803d
00000110: 5b95 5f3e d9cd 0e3e 728e a1bd a2f8 1ebe
00000120: 8bcf dabd b65b 933c 48b5 b03e 6d32 5c3d
00000130: 5efe bdbc cca0 7abe 7c37 fdbc 7bd5 e3bc
00000140: 9619 0ebe 2e32 6c3e a8fe dc3d a1c3 13be
00000150: b7bd 0c3e 0465 b23d 2263 50bd 4417 70be
00000160: 16fc b3be c7b4 d9bd 8740 4b3e 9153 193e
00000170: 61d6 48be 6ff2 ca3d 72e3 563e 1f76 9ebe
00000180: 4983 0a3e 93b9 1fbe b574 22bf 0220 5bbe
00000190: ff3d 3d3e 259a 803e f55f 2bbe aa19 4bbe
000001a0: 8a7c 9cbe 46e6 3f3e ec64 cfbd e1d3 babd
000001b0: cfcc 52bb b595 ba3c 824c c8bc bb94 4c3e
000001c0: c169 3cbd 4cc8 233d 9c62 143d f5b8 1abf
000001d0: d469 123c fc1d 3abe 6bbb 0e3d cfb5 3b3e
000001e0: cdab 5f3d 3645 aa3d 89b2 8ebe a77f 893d
000001f0: 3f19 1bbd 6137 b5be a744 76bd 6fec c8bd
00000200: 6e0a 0e3e b272 83be 85fc 0dbe 68d7 163d
00000210: 06c2 46be 63f7 4e3d d221 f33d 3726 253e
00000220: 2cc1 57bd 48c7 99bc 9bb9 353d 95e5 f63d
00000230: 5600 903e 4682 8dba 66d3 353e 7b51 0b3c
00000240: 9f44 2ebd 4046 16be 61b8 593d 4b42 fdba
00000250: c66b 033e 44f0 6ebe aad4 69be 9d6b 76be
00000260: bdda 95be 40f2 d13d cce5 303e 4dd1 12be
00000270: 8959 4cbe 81bb a9be ff91 71bd eec4 b3bc
00000280: a2ff 8abd 5da6 1ebd 387d 83bd 2c4c b6bd
00000290: e575 8bbd bd4e b7bc 895c 88bd 89a4 d13d
000002a0: fa6c d1bd 2518 5ebd be21 823c d327 113e
000002b0: a18f 253e 388f 213d 095b 3bbe 54ca dc3d
000002c0: 7633 463b 3726 6f3e 3b9e 973d 2380 5abe
000002d0: f29c 773d ce0a 143e d044 ea3e a532 b5bc
000002e0: 244c 023d cfd3 7a3d fe32 1abe 9b22 81bd
000002f0: 5c8d fcbd 11b3 c8bd f1ff 443e ecd2 f13d
00000300: a6ec 05bf c425 d7bc 0f60 8dbf 6682 fabd
00000310: fc0a bebd 49f3 3bbd 65ca 1dbe 1190 3dbd
00000320: e322 42bd d347 893d ecdf 4bbe c1ae 5cbd
00000330: 104a 37be 4eb1 bf3d 6a88 61bd 85ad 843d
00000340: 1a2d dbbc 6830 383d 737c 61bd b699 84bd
00000350: 9556 a03c c701 c8bc fe5c 8ebc ed4a 993b
00000360: 1791 c5bd 5cd0 9abd 225a 033d a6a5 c5bd
00000370: 82ea b23d b7de 523d fa4d a13d 8e2f 0cbe
00000380: 966c f43b 0601 503c 1319 23bd 0a5f 23be
00000390: 5f0f 21be 1386 7e3d ecbb ff3d 017a df3d
000003a0: 5bc1 96bc 765d 543e 297c 42bc cf56 40bd
000003b0: cca7 b43e b586 22be 6a17 ca3a fc70 693c
000003c0: e012 9c3d d3da c73d d0f4 bf3c 1b56 44ba
000003d0: 390d f3bd 7838 9fbd 9e91 4dbe b9eb 0ebe
000003e0: 8b0e adbc 79aa 73bc 27cf 2ebe 7fc1 66bc
000003f0: 31f6 5abc 18c0 a9bd 4319 013d 73e3 2e3d

fc1.bias f4 [64]
0.1003913 0.020442361 -0.07044205 -0.06506449 0.14000808 -0.103975244 -0.12262743 0.07255593
-0.041935097 -0.119899094 0.12027693 0.16539167 0.19057265 0.084831685 -0.053148713 -0.058181908
0.057979196 -0.0068585053 -0.029931203 -0.15278386 -0.12401574 0.048159618 -0.021155398 -0.07513298
-0.19653247 0.14712727 -0.013309409 -0.10333197 0.19882214 0.045037515 -0.13712963 -0.14668816
0.13501061 -0.0544792 -0.12494639 0.10722091 -0.027155021 0.040039558 0.019567579 -0.06849079
-0.016733136 -0.051200435 -0.11965285 0.19662204 0.004727339 -0.10984422 0.08357191 -0.080967814
-0.15624742 0.009488272 -0.14892547 0.051792305 -0.0584957 -0.03156155 -0.17963596 -0.057702202
0.087485105 -0.06744872 -0.13989 -0.1040567 0.020198025 0.067072675 0.043956827 0.069387995
00000000: f499 cd3d bd76 a73c ec43 90bd 8840 85bd
00000010: 475e 0f3e f9f0 d4bd 1724 fbbd 3498 943d
00000020: 23c4 2bbd a88d f5bd c053 f63d 6f5c 293e
00000030: 7a25 433e 3cbc ad3d 77b2 59bd 2750 6ebd
00000040: 987b 6d3d 50bd e0bb 4832 f5bc 5f73 1cbe
00000050: f7fb fdbd 0543 453d 164e adbc 52df 99bd
00000060: cf3f 49be 88a8 163e b50f 5abc b69f d3bd
00000070: 0898 4b3e 4279 383d b66b 0cbe 6c35 16be
00000080: 3940 0a3e 9525 5fbd e5e3 ffbd a396 db3d
00000090: 3574 debc 8500 243d 304c a03c e644 8cbd
000000a0: ee13 89bc 8cb7 51bd 8e0c f5bd 4a57 493e
000000b0: cbe7 9a3b 02f6 e0bd c027 ab3d 74d2 a5bd
000000c0: 53ff 1fbe b274 1b3c eb7f 18be 2b24 543d
000000d0: 3099 6fbd af46 01bd 7df2 37be 2559 6cbd
000000e0: 642b b33d 8e22 8abd 533f 0fbe ae1b d5bd
000000f0: 5476 a53c 665d 893d 130c 343d 4b1b 8e3d

fc2.weight f4 [64, 64]
-0.0189902 0.010829861 0.020233708 0.24436082 0.20724346 0.09158144 -0.0984782 -0.057604622
0.142638 0.10287661 -0.13498114 0.02379504 -0.080286555 0.07949521 -0.080859825 0.18777533
-0.06438934 0.049406093 -0.015012411 -0.0533414 -0.1097468 -0.0453764 0.1146041 0.10463273
-0.39128393 0.04298204 0.011307288 0.2042361 -0.044239495 -0.0048639285 0.04241581 -0.17001452
-0.05535843 0.07121453 -0.084834166 0.023262618 0.027432015 0.096314885 0.20375878 -0.15682784
-0.04417513 -0.15513773 0.042071816 -0.39984804 0.10153385 -0.16414498 0.10320183 -0.12402737
-0.09085376 0.07708512 -0.16897507 -0.0002983087 0.02547254 -0.19364999 -0.02204857 0.022835106
-0.13888557 -0.21321073 -0.14868322 -0.050392993 0.262524 0.13923715 -0.19018197 0.16219
0.039961647 0.11888103 -0.1360309 -0.17717029 0.06913923 0.13467681 0.0625047 -0.068127334
0.039751362 -0.11265256 -0.047643032 0.2628333 -0.16801447 0.2326067 -0.2711439 -0.09619781
0.046201468 0.055849608 0.0060366103 -0.14159678 -0.0022603793 -0.34664848 -0.0056053726 -0.119472496
-0.012453597 0.027120382 -0.22764058 -0.041190427 0.20093663 0.0028265968 -0.0037776513 -0.09306073
-0.1692782 -0.043017775 -0.2806042 -0.05608321 0.048967935 0.0027521835 -0.043925133 -0.15357131
-0.13747038 -0.027974062 0.16098358 -0.12731957 -0.048130956 0.014905437 -0.17341039 -0.17484462
-0.07722008 -0.16277206 -0.06617991 0.06396987 -0.0958567 -0.13211325 -0.12120868 -0.13849273
0.0076694414 0.05777784 0.14327922 -0.18966609 -0.1410382 0.18767002 -0.24671066 -0.24132605
0.050770763 -0.076422475 0.02809962 0.10887701 0.06733241 0.07339095 0.048753634 -0.025688194
0.1085762 -0.06677936 0.089567915 0.17708802 0.008189941 0.11124236 -0.07460731 0.010398154
-0.09663823 0.13867024 0.041798614 -0.023464093 -0.050988533 0.073365316 0.050260507 0.15806888
0.055406034 0.16350633 0.07693539 -0.36715522 0.08025113 0.10618623 0.053869143 0.043025583
-0.117421746 -0.09949145 -0.17302507 0.16205932 0.11804056 0.2935414 0.2910311 0.10800072
0.32905778 0.13716981 -0.010483489 -0.020188808 -0.111451425 -0.05009825 0.14742799 0.030364444
0.045366034 -0.14486557 0.17239988 0.024595572 -0.06907158 0.283317 -0.06345832 -0.04156239
0.046471152 -0.36793986 0.13351175 0.1307455 -0.028642338 0.13811328 -0.07077805 0.046043824
0.06614132 -0.045321893 -0.13120957 0.03832283 -0.20195732 -0.049532007 -0.07044257 -0.22339302
-0.29426712 -0.033389907 -0.10614468 0.13583215 -0.11054852 0.09316302 -0.021330133 0.033299126
-0.027247934 -0.19965276 -0.15600376 -0.2037781 -0.13457155 0.20179123 0.081007674 0.07133027
-0.016380878 0.0014420205 0.062133748 -0.030549828 0.18538798 -0.092063315 -0.07774592 -0.2015208
-0.1419199 -0.124321505 -0.11775526 0.0009955642 0.011848209 0.154213 0.0362503 0.124768
-0.03584542 0.29357842 0.026576933 -0.02558407 0.043432724 -0.08886071 0.08532667 -0.12926944
0.053696707 0.15143068 -0.018745648 0.035882108 0.01705142 0.1015018 -0.02782857 0.19574186
-0.19095172 0.004857774 -0.17633475 0.16329597 -0.22104965 0.07821499 -0.19834845 -0.056750137
00000000: 5691 9bbc bb6f 313c 29c1 a53c b939 7a3e
00000010: a137 543e 0d8f bb3d f0ae c9bd d3f2 6bbd
00000020: b20f 123e f9b0 d23d 7f38 0abe d1ed c23c
00000030: 476d a4bd 62ce a23d d699 a5bd 2d48 403e
00000040: 8fde 83bd 0b5e 4a3d 9ef6 75bc 837c 5abd
00000050: eec2 e0bd 9bdc 39bd 8eb5 ea3d af49 d63d
00000060: 5e56 c8be f00d 303d 3442 393c 4523 513e
00000070: 7934 35bd 9761 9fbb 33bc 2d3d 4918 2ebe
00000080: 85bf 62bd ecd8 913d 89bd adbd 3f91 be3c
00000090: 1bb9 e03c bd40 c53d 24a6 503e 7a97 20be
000000a0: fbf0 34bd 6ddc 1ebe 7f53 2c3d e2b8 ccbe
000000b0: fbf0 cf3d 9f15 28be 7b5b d33d 1002 febd
000000c0: 8911 babd cede 9d3d cd07 2dbe 5166 9cb9
000000d0: caab d03c 2f4c 46be 349f b4bc b010 bb3c
000000e0: 0538 0ebe ea53 5abe 6a40 18be e268 4ebd
000000f0: 8c69 863e 2f94 0e3e 10bf 42be 2315 263e
00000100: d3ae 233d e677 f33d af4b 0bbe 216c 35be
00000110: de98 8d3d b8e8 093e 7702 803d 5886 8bbd
00000120: 53d2 223d 63b6 e6bd 5725 43bd 1692 863e
00000130: fc0b 2cbe 7330 6e3e 60d3 8abe 5b03 c5bd
00000140: c03d 3d3d 8fc2 643d c2ce c53b bffe 10be
00000150: df22 14bb e97b b1be 46ad b7bb ffad f4bd
00000160: 2c0a 4cbc 902b de3c 9d1a 69be 4bb7 28bd
00000170: 55c2 4d3e 6d3e 393b 7992 77bb a096 bebd
00000180: 4457 2dbe 6833 30bd 5bab 8fbe 82b7 65bd
00000190: 9a92 483d fa5d 343b d7ea 33bd cc41 1dbe
000001a0: 09c5 0cbe dc29 e5bc e1d8 243e 1060 02be
000001b0: f724 45bd ef35 743c 7e92 31be 780a 33be
000001c0: 9025 9ebd b8ad 26be 5589 87bd a302 833d
000001d0: 8450 c4bd b248 07be 423c f8bd 0ad1 0dbe
000001e0: f04f fb3b 75a8 6c3d cab7 123e d437 42be
000001f0: 516c 10be 922c 403e b8a1 7cbe 2d1e 77be
00000200: 01f5 4f3d 6383 9cbd 2d31 e63c e9fa de3d
00000210: 93e5 893d ff4d 963d e4b1 473d 0c70 d2bc
00000220: 335d de3d 9ec3 88bd 626f b73d 9056 353e
00000230: 1a2f 063c 09d3 e33d b8cb 98bd 055d 2a3c
00000240: 44ea c5bd 92ff 0d3e 0635 2b3d c537 c0bc
00000250: 5ad9 50bd 8e40 963d f6dd 4d3d cfdc 213e
00000260: 70f1 623d 346e 273e 4d90 9d3d c5fb bbbe
00000270: b45a a43d 2b78 d93d e4a5 5c3d 983b 303d
00000280: d07a f0bd 2cc2 cbbd 7c2d 31be e1f2 253e
00000290: 40bf f13d 0f4b 963e 0702 953e 7b2f dd3d
000002a0: 437a a83e 3e76 0c3e f1c2 2bbc 0063 a5bc
000002b0: a540 e4bd d333 4dbd 5df7 163e dbbe f83c
000002c0: bcd1 393d a457 14be 9889 303e a77c c93c
000002d0: 6775 8dbd ed0e 913e 70f6 81bd 533d 2abd
000002e0: 8958 3e3d 9d62 bcbe 4eb7 083e 26e2 053e
000002f0: 56a3 eabc 916d 0d3e 15f4 90bd 7398 3c3d
00000300: 1a75 873d 73a3 39bd cd5b 06be 66f8 1c3d
00000310: e6cd 4ebe 13e2 4abd 3244 90bd 24c1 64be
00000320: 2eaa 96be dbc3 08bd 6262 d9bd 9517 0b3e
00000330: 4367 e2bd 41cc be3d 88bc aebc aa64 083d
00000340: 0f37 dfbc c671 4cbe 73bf 1fbe 35ab 50be
00000350: 20cd 09be 5ca2 4e3e 5ae7 a53d 9b15 923d
00000360: 3131 86bc 2e02 bd3a f57f 7e3d a243 fabc
00000370: 59d6 3d3e b18b bcbd 4139 9fbd 785b 4ebe
00000380: 7353 11be 469c febd ab29 f1bd 977d 823a
00000390: fe1e 423c 03ea 1d3e 327b 143d 5d86 ff3d
000003a0: a6d2 12bd e94f 963e deb7 d93c af95 d1bc
000003b0: 83e6 313d 9bfc b5bd c0bf ae3d 355f 04be
000003c0: 14f1 5b3d a510 1b3e 7990 99bc 1ef9 123d
000003d0: 6baf 8b3c 2de0 cf3d bef8 e3bc 8e70 483e
000003e0: d988 43be f62d 9f3b 1991 34be 0f37 273e
000003f0: d75a 62be 2e2f a03d db1b 4bbe d572 68bd

fc2.bias f4 [64]
-0.062890194 -0.077880524 0.107516564 0.042671725 0.11756011 -0.091791354 -0.033124413 -0.061356537
0.17329909 0.33721662 -0.108107425 0.20551036 0.18610291 -0.0085433405 -0.091764376 0.039665747
0.02870745 -0.035659283 0.029838592 0.08316554 0.24449329 0.38101247 -0.1605644 -0.16785426
-0.053843398 -0.14225787 -0.012215081 -0.023837257 -0.089241825 0.1871932 0.08625974 -0.0660054
-0.00069040735 0.040247567 0.033384446 -0.0945749 -0.064754136 -0.123419724 0.073603466 0.036866385
-0.120848075 0.39364216 0.27307186 -0.060404707 0.02698867 -0.11232958 0.19766013 -0.0779
0.076239295 -0.113513626 -0.106096484 0.28990057 -0.024703681 -0.08092196 0.040225357 0.017568855
-0.13119754 -0.14358006 0.086321585 -0.022608781 -0.037124697 0.1626426 0.0273099 -0.09752604
00000000: 93cc 80bd d37f 9fbd a531 dc3d 8cc8 2e3d
00000010: 5bc3 f03d 1bfd bbbd 77ad 07bd fe50 7bbd
00000020: 5175 313e a8a7 ac3e 6d67 ddbd 4f71 523e
00000030: c391 3e3e 5ef9 0bbc f6ee bbbd 8d78 223d
00000040: e32b eb3c 780f 12bd 1070 f43c b252 aa3d
00000050: 735c 7a3e 1114 c33e fe6a 24be fde1 2bbe
00000060: e58a 5cbd 0cac 11be c321 48bc 5a46 c3bc
00000070: 6bc4 b6bd 93af 3f3e f2a8 b03d d72d 87bd
00000080: 74fc 34ba a2da 243d 21be 083d 7cb0 c1bd
00000090: d19d 84bd 7bc3 fcbd 6abd 963d 3501 173d
000000a0: 327f f7bd 778b c93e 13d0 8b3e ed6a 77bd
000000b0: 5817 dd3c 0d0d e6bd 6b67 4a3e 098a 9fbd
000000c0: 5923 9c3d d579 e8bd 1d49 d9bd d96d 943e
000000d0: 605f cabc 6aba a5bd 58c3 243d 8fec 8f3c
000000e0: a658 06be a706 13be 5fc9 b03d 0d36 b9bc
000000f0: 1110 18bd c88b 263e 03b9 df3c bcbb c7bd

fc3.weight f4 [4, 64]
-0.031583793 0.06671717 0.14701818 0.004951717 0.14024976 0.23928414 0.23508452 -0.15711986
0.2349235 0.11348421 0.16012424 0.20618701 0.080950655 -0.09280674 -0.19268125 -0.06254431
0.21405649 0.17915355 0.3847542 0.172695 0.12563899 0.14015974 -0.16568325 -0.123568736
-0.5368119 -0.042994086 -0.16574898 -0.33594415 -0.016048301 0.14058787 -0.4443429 0.11116934
0.17037076 0.14758895 0.05460423 -0.0010441802 0.51113755 -0.20641088 0.037280295 0.060171086
0.19495907 0.12375034 0.076935574 0.2411347 0.01580586 -0.12360992 0.15575042 0.096518986
-0.0086651165 0.14151183 -0.099812 0.101738 0.07773611 -0.23899463 0.11138674 -0.15249214
-0.41424838 0.014353995 0.16545178 0.09570292 -0.014993154 0.15495928 0.22935762 0.13236654
0.12925304 0.1341574 0.17324544 0.043879304 0.0665244 0.5481149 0.2777031 -0.19116165
0.13297468 0.088262744 0.2510885 0.08614432 0.08434745 0.19044144 -0.25939518 0.11753283
0.32566714 0.31715095 0.12169176 0.13282354 0.12621385 0.15706505 -0.1473725 -0.18189171
0.092250645 -0.067498624 -0.1516076 -0.41160968 -0.13633192 0.17502585 0.48440045 0.18608639
0.14478439 0.048035715 0.15213713 -0.05947222 0.27770907 -0.11116782 0.09938865 0.04802421
0.28591013 0.1589195 0.03472018 0.3312398 -0.038216103 0.00069461804 0.12817578 0.065111265
0.13446799 0.2660238 -0.08427671 0.017387679 0.055360667 -0.0822654 0.15051258 0.005439364
-0.1104313 -0.12072279 0.19959491 0.00044695428 -0.10689154 0.03868179 0.035195038 -0.12597825
-0.22829011 0.24425185 0.18827386 0.19259873 0.2549394 0.46596628 0.13605887 -0.005748879
0.14272851 0.09577431 -0.115982436 0.24601434 0.1847948 -0.20164576 0.22545274 0.2233881
0.13665135 -0.029741786 0.03888443 0.049331047 0.059541594 0.15677154 -0.13538934 -0.224872
-0.021520516 -0.094999306 -0.10159183 -0.21574716 0.14082205 0.21036462 -0.22026543 0.035257403
0.26369458 -0.10699164 0.20000033 0.09327786 0.2458695 -0.3128149 0.056534946 0.12202208
0.51553077 0.1272344 0.15026674 0.23253609 0.13220164 0.01652981 0.110123694 0.42672884
0.19223782 0.1668899 -0.24946502 0.20613568 -0.17056222 -0.16920495 0.07681406 0.0758346
-0.36718997 0.03973244 0.11390725 -0.062825106 -0.17386854 0.06604257 0.029752241 0.40361193
0.32238045 0.45030886 0.1191055 -0.24398896 -0.03536128 -0.068654716 0.09471545 -0.17429376
0.17377226 0.17219931 0.55270064 0.060107164 0.15575384 0.15686017 0.20823967 -0.11489473
0.43317622 0.12564313 0.13885655 0.09769981 0.042719096 0.17003886 -0.20248488 -0.0032510932
0.080586605 -0.06072635 -0.09837906 -0.2871573 0.30955145 0.041754194 -0.15638997 0.16021666
0.20830552 0.22798212 0.023222169 0.01553345 0.058832955 -0.0790553 0.14127879 0.08119038
0.13998248 0.21871477 0.16331474 -0.19330266 0.29986802 -0.25019467 0.09696158 -0.020550482
0.06351134 0.26539564 0.20453405 0.13168168 -0.0049643335 -0.006792915 0.1390467 0.06273605
-0.25416425 -0.4081423 0.16002882 -0.06577076 -0.1468683 0.046595294 -0.111664735 -0.16018851
00000000: 025e 01bd 03a3 883d ef8b 163e 0342 a23b
00000010: a29d 0f3e e706 753e ffb9 703e 07e4 20be
00000020: c98f 703e 696a e83d 9cf7 233e b022 533e
00000030: 75c9 a53d 7611 bebd 3c4e 45be 3b17 80bd
00000040: a031 5b3e 0774 373e 81fe c43e f5d6 303e
00000050: 82a7 003e 0986 0f3e dfa8 29be 9b11 fdbd
00000060: 816c 09bf 911a 30bd 1aba 29be df00 acbe
00000070: ba77 83bc 44f6 0f3e ea80 e3be c0ac e33d
00000080: ac75 2e3e 8f21 173e afa8 5f3d e0dc 88ba
00000090: e9d9 023f 605d 53be 39b3 183d f575 763d
000000a0: 5aa3 473e d170 fd3d 6690 9d3d 04ec 763e
000000b0: 4a7b 813c 3327 fdbd 0a7d 1f3e bfab c53d
000000c0: 22f8 0dbc 7ae8 103e 3c6a ccbd 035c d03d
000000d0: 1c34 9f3d 02bb 74be bb1e e43d e626 1cbe
000000e0: 5d18 d4be 052d 6b3c 316c 293e e4ff c33d
000000f0: d9a5 75bc a5ad 1e3e b9dc 6a3e 188b 073e
00000100: e95a 043e 8f60 093e 4167 313e c9ba 333d
00000110: f23d 883d 4251 0c3f 1a2f 8e3e e1bf 43be
00000120: 842a 083e 19c3 b43d ac8e 803e 6f6c b03d
00000130: 5bbe ac3d 1503 433e 72cf 84be 0db5 f03d
00000140: d8bd a63e 9c61 a23e 8839 f93d e502 083e
00000150: 343e 013e a9d5 203e d1e8 16be d241 3abe
00000160: e8ed bc3d b83c 8abd 063f 1bbe 81be d2be
00000170: 989a 0bbe fa39 333e 5603 f83e 6e8d 3e3e
00000180: 5c42 143e 19c1 443d d6c9 1b3e 2499 73bd
00000190: e22f 8e3e f4ab e3bd 478c cb3d 09b5 443d
000001a0: d062 923e cbbb 223e bf36 0e3d 4398 a93e
000001b0: 7d88 1cbd 0717 363a 8340 033e 0e59 853d
000001c0: fab1 093e 4634 883e 4599 acbd 9b70 8e3c
000001d0: dec1 623d c37a a8bd f81f 1a3e b13c b23b
000001e0: ce29 e2bd 833d f7bd 9c62 4c3e 3055 ea39
000001f0: f4e9 dabd cc70 1e3d ac28 103d 7100 01be
00000200: e2c4 69be 281d 7a3e ddca 403e 9a38 453e
00000210: 6b87 823e 2293 ee3e 0453 0b3e 1861 bcbb
00000220: 6c27 123e 5225 c43d 3388 edbd 2feb 7b3e
00000230: d93a 3d3e 3a7c 4ebe 15dd 663e dabf 643e
00000240: 55ee 0b3e 0ca5 f3bc 4845 1f3d 5a0f 4a3d
00000250: e3e1 733d b888 203e 81a3 0abe d844 66be
00000260: cb4b b0bc ff8e c2bd 610f d0bd d3ec 5cbe
00000270: a833 103e d369 573e 438d 61be 116a 103d
00000280: fa02 873e 6f1e dbbd e3cc 4c3e 7608 bf3d
00000290: 37c5 7b3e 4629 a0be 3091 673d b6e6 f93d
000002a0: d3f9 033f bc49 023e 86df 193e f11d 6e3e
000002b0: de5f 073e 8669 873c 8888 e13d 347c da3e
000002c0: fed9 443e 30e5 2a3e c273 7fbe 3b15 533e
000002d0: dda7 2ebe 1044 2dbe b150 9d3d 2c4f 9b3d
000002e0: 5300 bcbe 7cbe 223d 3448 e93d 73aa 80bd
000002f0: 980a 32be 5441 873d f9ba f33c 39a6 ce3e
00000300: 0d0f a53e e28e e63e 96ed f33d 3ed8 79be
00000310: fdd6 10bd d89a 8cbd 2dfa c13d 107a 32be
00000320: 5bf1 313e 0455 303e ca7d 0d3f ee32 763d
00000330: ef7d 1f3e f49f 203e c83c 553e ee4d ebbd
00000340: 46c9 dd3e 98a8 003e 6930 0e3e d716 c83d
00000350: 38fa 2e3d ab1e 2e3e 3258 4fbe 4b10 55bb
00000360: 970a a53d 31bc 78bd f67a c9bd 4806 93be
00000370: 877d 9e3e 7206 2b3d b124 20be d60f 243e
00000380: 0b4e 553e 2574 693e 6b3c be3c 0380 7e3c
00000390: d3fa 703d bfe7 a1bd 63ab 103e 2447 a63d
000003a0: 9157 0f3e c4f6 5f3e fb3b 273e 22f1 45be
000003b0: 4d88 993e 8419 80be cb93 c63d 7c59 a8bc
000003c0: 3c12 823d f0e1 873e 6071 513e 90d7 063e
000003d0: d9ab a2bb 1a97 debb 4262 0e3e c27b 803d
000003e0: d121 82be 07f8 d0be 98de 233e d2b2 86bd
000003f0: a564 16be b5da 3e3d 7bb0 e4bd 7508 24be

fc3.bias f4 [4]
0.2239758 0.23380534 0.13704646 0.10704106
00000000: ea59 653e ab6a 6f3e e855 0c3e 5838 db3d

state_value.weight f4 [1, 64]
-0.054447323 -0.09212187 0.006732762 -0.094791204 -0.0057646185 -0.017105967 -0.09679772 -0.056434557
0.054638714 -0.035835266 -0.11032523 0.101695165 -0.038971946 0.0150654465 0.100521564 0.062241465
-0.10103564 0.11041115 -0.034844175 0.031886265 0.05564849 0.043631062 0.08543804 -0.05641015
0.09289703 0.07945952 -0.10962953 -0.046604335 0.108024165 -0.092778236 -0.11310549 0.07719906
0.044047132 0.013705254 0.09967773 0.006155029 0.12188414 -0.08295171 -0.10742861 -0.027182668
0.12152025 -0.106874645 0.051569834 0.032007486 -0.05293022 -0.10251227 0.052341044 0.046877548
-0.003269419 0.04939127 0.06835668 -0.08804001 -0.10805328 -0.020785928 -0.017989367 -0.048013568
0.032899693 -0.09592314 0.121463805 -0.025154322 -0.0698238 -0.019973189 -0.09898007 -0.10816315
00000000: 2804 5fbd 64aa bcbd 809e dc3b e421 c2bd
00000010: 20e5 bcbb d021 8cbc e23d c6bd ec27 67bd
00000020: d8cc 5f3d 00c8 12bd 32f2 e1bd 8e45 d03d
00000030: 0ca1 1fbd 10d5 763c 40de cd3d e8f0 7e3d
00000040: c6eb cebd 3e1f e23d c4b8 0ebd 2c9b 023d
00000050: acef 633d 7cb6 323d 24fa ae3d 540e 67bd
00000060: cc40 be3d acbb a23d 7285 e0bd 30e4 3ebd
00000070: c63b dd3d 8402 bebd daa3 e7bd 8a1a 9e3d
00000080: c46a 343d 008c 603c d623 cc3d 20b0 c93b
00000090: 649e f93d 96e2 a9bd 8803 dcbd 30ae debc
000000a0: 9cdf f83d 18e1 dabd e43a 533d 481a 033d
000000b0: 5ccd 58bd f4f1 d1bd 9063 563d ac02 403d
000000c0: c043 56bb 804e 4a3d 96fe 8b3d 524e b4bd
000000d0: 0a4b ddbd 4047 aabc 705e 93bc e0a9 44bd
000000e0: d4c1 063d 5a73 c4bd 04c2 f83d 7010 cebc
000000f0: c8ff 8ebd d09e a3bc 10b6 cabd a484 ddbd
