checkpoint2.pth (torch_old, 28933 bytes, 7 tensors)

fc1.weight f4 [64, 37]
0	0xbaf87eb4	-0.0018958659
1	0x3d0edcca	0.03487853
2	0xbde53452	-0.1119162
3	0x3ca8080f	0.020511655
4	0xbd1066da	-0.035254337
5	0xbe74b448	-0.23896897
6	0x3da8b007	0.082366996
7	0x3ea1bd2a	0.31589633
8	0x3c524643	0.0128341345
9	0x3df66310	0.120306134
10	0x3dbb28ae	0.091386184
11	0xbe0efe28	-0.1396414
12	0xbe17604c	-0.14782828
13	0xbe803aa1	-0.2504473
14	0xbed3e6ce	-0.41387028
15	0x3da5850b	0.080820166
16	0xbc279684	-0.010228757
17	0xbcc9d266	-0.024636459
18	0x3e44f213	0.19232969
19	0xbe640394	-0.2226699
20	0x3e11b3fb	0.14228813
21	0x3dde2641	0.1084714
22	0x3ccb7963	0.024838155
23	0x3d87c861	0.06630016
24	0xbe68c108	-0.22729886
25	0x3cfa4d3a	0.030554403
26	0x3ddedac1	0.10881568
27	0xbe2a622c	-0.16639012
28	0x3d49f625	0.049307007
29	0x3d45758d	0.04820781
30	0x3da8ac58	0.08235997
31	0xbcb8f2c1	-0.022576692
32	0xbd09a335	-0.033602912
33	0xbe194478	-0.14967525
34	0xbeda8453	-0.4267908
35	0xbeb36d97	-0.35044548
36	0xbcdb2161	-0.026749315
37	0x3d89385d	0.067002036
38	0x3b92ff04	0.0044859666
39	0x3e17705f	0.1478896
40	0x3e4a5e1b	0.19762461
41	0x3db16646	0.08662085
42	0xbd566fc7	-0.052352693
43	0xbcd3bfba	-0.025848258
44	0xbd8da5ba	-0.069163755
45	0xbdc160f1	-0.09442318
46	0x3e73a686	0.23793992
47	0x3de7c87a	0.11317535
48	0xbe2cf6d9	-0.1689104
49	0x3cf27da8	0.029600933
50	0x3e1caa7c	0.1529941
51	0x3d9ccaf4	0.07655898
52	0x3e821c2a	0.25412112
53	0xbd654f09	-0.055983577
54	0xbdd8ac81	-0.105797775
55	0xbddcf5cb	-0.10789069
56	0xbeeea826	-0.46612662
57	0xbe6a7092	-0.22894505
58	0xbd80c438	-0.06287426
59	0xbd5ad08d	-0.053421546
60	0x3dcfecb6	0.10152571
61	0x3dd0fe57	0.102047615
62	0x3e3e0419	0.1855625
63	0x3b457073	0.003012684
64	0xbd9b3609	-0.07578666
65	0xbd84b24e	-0.064793214
66	0xbf4c0bf7	-0.79705757
67	0xbda98302	-0.08276941
68	0x3e2a1069	0.16607822
69	0x3e211405	0.15730293
70	0x3d542bdf	0.05179965
71	0x3d88e9a2	0.06685187
72	0x3c404b11	0.011736647
73	0x3d2b5324	0.041827336
74	0x3e5b76b9	0.21432008
75	0x3e343c1c	0.17601055
76	0x3e336645	0.17519481
77	0xbeba5439	-0.36392382
78	0xbf2c701c	-0.67358565
79	0xbdf6af3b	-0.12045141
80	0xbc2c28dc	-0.0105077885
81	0x3debe147	0.115175776
82	0x3d8c6d2d	0.06856761
83	0xbe3a9d77	-0.1822413
84	0x3e72a539	0.2369584
85	0xbde5791d	-0.11204741
86	0xbe186c4a	-0.14885059
87	0xbe1d615e	-0.15369174
88	0xbd33f22b	-0.04393212
89	0xbe6c728a	-0.23090568
90	0x3e169685	0.14705856
91	0x3e1b10da	0.15143147
92	0x3e003eb2	0.12523916
93	0x3e9ea181	0.30982593
94	0xbe743f01	-0.23852159
95	0xbd1e2206	-0.038606666
96	0x3dfda5b8	0.12385124
97	0x3d3a6f2a	0.04551617
98	0xbdd37f44	-0.10327008
99	0x3e460c56	0.19340643
100	0xbd5dc451	-0.0541423
101	0x3d061d4f	0.032742795
102	0xbe95a455	-0.29226938
103	0xbe0d09d2	-0.13773277
104	0xbe64fc38	-0.22361839
105	0x3c9ca833	0.019123172
106	0xbde33fc5	-0.110961474
107	0xbcf6e10a	-0.030136604
108	0x3d10e67e	0.035376064
109	0xbd7f1187	-0.062272575
110	0xbd6e56ba	-0.058188178
111	0x3dfa208d	0.1221324
112	0xbe00035d	-0.12501283
113	0x3e682170	0.22669005
114	0x3d5e7cd9	0.054318283
115	0x3c12c39c	0.00895777
116	0xbc819122	-0.015816275
117	0xbd7a31f7	-0.061082806
118	0xbe366cd9	-0.1781496
119	0x3ebd852f	0.37015674
120	0x3f85bb8a	1.0447857
121	0xbd8147ae	-0.063125
122	0xbd55ccd5	-0.052197296
123	0x3d85ac94	0.06527057
124	0x3db63787	0.0889731
125	0x3d36484b	0.044502538
126	0x3d05ce72	0.032667585
127	0xbd2bfff5	-0.041992147
128	0xbca20078	-0.019775614
129	0xbe57a38e	-0.21058485
130	0xbccf9ecd	-0.025344277
131	0x3d47cc9f	0.048779126
132	0xbd81a720	-0.06330705
133	0x3d23ce4e	0.03999167
134	0x3df284b8	0.1184172
135	0x3e127447	0.14302169
136	0x3e1fe162	0.1561332
137	0x3dccc3ec	0.09998307
138	0xbe0c115a	-0.13678494
139	0x3d78d2a7	0.06074777
140	0x3e268aa0	0.16263819
141	0x3e02f6fa	0.12789527
142	0x3da62631	0.08112753
143	0x38ec117b	0.00011256613
144	0xbd598242	-0.05310274
145	0xbd9b3e3d	-0.075802304
146	0x3bddb275	0.0067656585
147	0x3c3619d4	0.011114556
148	0xbcc10fcb	-0.023567101
149	0xbdd2335b	-0.102637015
150	0xbde0ab60	-0.10970187
151	0xbceb94bb	-0.028757444
152	0x3cbc27fd	0.022968287
153	0x3e4d1d85	0.20030792
154	0x3de7ee5a	0.11324759
155	0xbd9cee65	-0.07662658
156	0xbda9720b	-0.08273705
157	0xbf16dd52	-0.5893146
158	0xbcbe7812	-0.023250613
159	0x3c47e658	0.012200914
160	0x3c38e569	0.011285164
161	0xbd742ac8	-0.059611112
162	0xbcce898e	-0.025212076
163	0xbe701d9a	-0.23448792
164	0x3e09862e	0.13430092
165	0x3d818ba3	0.06325462
166	0x3d6fd3b2	0.058551498
167	0x3e96bb6a	0.2943986
168	0xbd413fde	-0.04718005
169	0x3d46980c	0.048484847
170	0x3d3e56ac	0.046469375
171	0x3b0779f0	0.0020672046
172	0x3e5db5c6	0.21651372
173	0x3ee4161e	0.44548124
174	0xbeb59a7a	-0.3546942
175	0xbdee8bbe	-0.116477475
176	0xbe8bb0f7	-0.2728345
177	0xbf95b0a3	-1.169453
178	0x3e224ed7	0.15850388
179	0xbdf9eeb2	-0.12203731
180	0x3d858266	0.06519012
181	0x3dbfa541	0.093576916
182	0x3e61c811	0.22048976
183	0x3be923e0	0.0071148723
184	0x3ae1e2fc	0.0017233784
185	0xbd52adb5	-0.05143519
186	0xbb534ffc	-0.003224372
187	0x3d6e855e	0.058232658
188	0x3c488872	0.012239562
189	0x3d387a41	0.045038465
190	0x3edc4ea3	0.43028745
191	0xbf47b01f	-0.78003114
192	0xbf1db03b	-0.6159703
193	0xbed3df34	-0.41381228
194	0xbff13446	-1.8844078
195	0xbd508c8c	-0.050915286
196	0xbd369252	-0.044573136
197	0x3d3b919f	0.045793172
198	0xbd8a006b	-0.06738361
199	0xbd283522	-0.041066296
200	0x3d04a360	0.03238237
201	0x3d745513	0.059651446
202	0xbd5b446e	-0.053532057
203	0x3e142fc3	0.14471345
204	0x3cb01f02	0.02149916
205	0x3d8eaf4f	0.06967031
206	0x3d015dc2	0.031583555
207	0x3e41e7fe	0.18936154
208	0x3e4142f4	0.18873197
209	0x3dab5761	0.083662756
210	0x3cc87244	0.024468549
211	0xbd45a9c4	-0.048257604
212	0x3e1f8cf6	0.15581116
213	0x3d7a3631	0.061086837
214	0x3e7f73e4	0.24946553
215	0x3dc7ba77	0.09752362
216	0x3c5fb043	0.013652864
217	0xbccccea3	-0.025000876
218	0xbdac25d0	-0.0840565
219	0xbd72bd6b	-0.059262674
220	0xbd80eab6	-0.062947676
221	0x3d1ed031	0.038772766
222	0x3da32f22	0.07967974
223	0xbd813c11	-0.06310285
224	0xbec10631	-0.37700036
225	0x3e57b957	0.21066795
226	0xbeb9bebf	-0.3627834
227	0xbea59887	-0.32342932
228	0x3cbd81b4	0.023133136
229	0x3d811ee1	0.06304718
230	0xbe2113e7	-0.15730248
231	0x3e24c829	0.1609198
232	0xbe641b89	-0.22276129
233	0x3e2d42f2	0.16920069
234	0x3e286c16	0.16447482
235	0xbd2866d7	-0.0411137
236	0xbcaf1fcd	-0.021377468
237	0xbe8ab088	-0.27087808
238	0xbdb34f02	-0.08755304
239	0x3d32f4b3	0.043690395
240	0x3e5eaf3f	0.21746539
241	0x3def58c6	0.11686854
242	0xbd89f8f2	-0.06736936
243	0x3c1bb036	0.009502461
244	0xbc0ae530	-0.008477494
245	0xbe1459e3	-0.14487414
246	0x3dbcf03b	0.09225508
247	0xbdb3699d	-0.087603785
248	0xbe1d8627	-0.15383206
249	0xbd8d2071	-0.06890953
250	0xbd937706	-0.07200436
251	0x3e363c78	0.17796504
252	0x3d82da32	0.06389274
253	0x3c2ee2ff	0.010674237
254	0xbe1db2eb	-0.15400283
255	0xbe0b2a00	-0.1359024

fc1.bias f4 [64]
0	0x3e1e4a0d	0.15457936
1	0xbd1cf252	-0.038317032
2	0xbdc709b5	-0.09718648
3	0xbcdd530f	-0.027017144
4	0x3e463fc5	0.19360264
5	0x3ce94c9c	0.028478913
6	0xbe05575f	-0.1302161
7	0x3d6909a5	0.056893963
8	0xbcbc6430	-0.022996992
9	0xbe74e7f4	-0.23916608
10	0x3e30d378	0.17268169
11	0x3e209fd0	0.15685964
12	0x3e1a1b17	0.15049396
13	0x3e145433	0.14485244
14	0xbc27ada9	-0.010234275
15	0xbd948ac1	-0.07253028
16	0x3d88debd	0.06683109
17	0x3c4bf4e3	0.012448522
18	0x3d6aeb50	0.057353318
19	0xbe09d70a	-0.13460937
20	0xbdc3120b	-0.09524926
21	0x3d119a8a	0.03554777
22	0x3b65b9f7	0.003505347
23	0xbd8f8e74	-0.07009593
24	0xbd06748b	-0.032825988
25	0x3e3b61eb	0.18299071
26	0xbd9fb7cb	-0.077987276
27	0xbdd0fa2c	-0.102039665
28	0x3e14b0f9	0.14520635
29	0x3e0a6409	0.13514723
30	0xbb9cfec0	-0.0047911108
31	0xbe801ec2	-0.25023466
32	0x3e016b6e	0.12638637
33	0xbced9390	-0.029001027
34	0xbde59d8a	-0.11211689
35	0x3cdc1daa	0.026869614
36	0xbdb92ff1	-0.09042347
37	0x3da81b02	0.08208276
38	0xbbb090e3	-0.0053883656
39	0xbe09b10c	-0.13446444
40	0xbde9dc85	-0.11419014
41	0x3ba66e34	0.005079055
42	0xbe122879	-0.14273252
43	0x3d85a041	0.06524707
44	0xbadade1e	-0.0016698276
45	0xbdadddc9	-0.08489568
46	0xbc7e78bd	-0.015531716
47	0xbe1175b3	-0.14205055
48	0xbe1e6b05	-0.15470512
49	0x3c40311c	0.011730459
50	0xbe2a4939	-0.16629495
51	0x3d61ad72	0.05509705
52	0x3d3bdb60	0.04586351
53	0xbc648c40	-0.013949454
54	0xbe212850	-0.15738034
55	0x3ce7c239	0.028290855
56	0x3dbde93a	0.09273
57	0xbda00870	-0.07814109
58	0xbe2166b9	-0.15761842
59	0xbe16f4da	-0.14741841
60	0x3cd16b39	0.025563823
61	0xbc0e69e1	-0.008692236
62	0x3d2a9fc2	0.041656263
63	0x3da8bc50	0.08239043

fc2.weight f4 [64, 64]
0	0x3cb0590b	0.021526834
1	0x3e86efc3	0.263548
2	0x3db9e3a7	0.09076624
3	0x3c00aca1	0.007853658
4	0x3e404a1a	0.18778268
5	0xbe25def6	-0.16198334
6	0x3dcbb748	0.099470675
7	0x3ca9bd0e	0.020720031
8	0x3dee3992	0.116320744
9	0x3beeec6c	0.0072913673
10	0x3ddaa369	0.10675699
11	0x3d1c1ae2	0.038111575
12	0xbd2de643	-0.042455923
13	0x3e592475	0.21205314
14	0x3e0e8ae6	0.13920173
15	0xbcfda94b	-0.030964514
16	0xbc943052	-0.018089447
17	0xbe96de0b	-0.2946628
18	0x3d853f50	0.065062165
19	0xbc70a6a7	-0.0146881705
20	0x3e112ada	0.14176503
21	0x3d2dbd9e	0.04241716
22	0xb781f310	-1.5491183e-05
23	0x3db9bf05	0.09069637
24	0xbc7b133d	-0.015324411
25	0x3bcdaa7b	0.0062764264
26	0x3e0364f6	0.12831482
27	0x3db6610a	0.089052275
28	0xbe922db8	-0.28550506
29	0x3e0f6de7	0.14006768
30	0xbbf93a97	-0.0076058614
31	0xbc8c9c16	-0.017164271
32	0x3e00e3ed	0.12586947
33	0x3d7b4996	0.061349474
34	0x3d221241	0.03956819
35	0x3d298cb6	0.041393958
36	0xbe269809	-0.16268934
37	0x3e3bc293	0.18335943
38	0x3daa656f	0.08320128
39	0xbe45b5f1	-0.19307686
40	0xbe6a5bb5	-0.22886546
41	0xbcc72217	-0.024308247
42	0xbe41fdf6	-0.18944535
43	0xbd163f49	-0.036681447
44	0x3d4cae2b	0.049970787
45	0xbe239868	-0.15976107
46	0xbe90175e	-0.28142828
47	0xbe118160	-0.14209509
48	0xbe0c128d	-0.13678952
49	0xbcc3675a	-0.023852993
50	0xbdee96d0	-0.11649859
51	0x3cc49dfc	0.024001114
52	0xbe8ecd2c	-0.2789091
53	0xbe08b6a1	-0.13350917
54	0x3d42ac7f	0.047527786
55	0xbc940a87	-0.018071426
56	0x3dcca5ed	0.09992585
57	0x3e01af2c	0.12664479
58	0xbd271e44	-0.040800348
59	0xbd93df1c	-0.07220289
60	0x3dc7d1cf	0.09756815
61	0xbe46402f	-0.19360422
62	0x3da143c0	0.078742504
63	0x3ccb81a5	0.024842093
64	0x3e1e1679	0.1543826
65	0xbb965169	-0.0045873416
66	0xbdab431c	-0.083624095
67	0x3d63ea7e	0.05564355
68	0xbe674899	-0.22586288
69	0x3d79ca66	0.060984038
70	0xbc072e4c	-0.008250784
71	0xbe7738fe	-0.24142835
72	0x3ce8ddbd	0.028426046
73	0xbea999b8	-0.3312509
74	0x3e4ac998	0.19803464
75	0x3d4895fc	0.04897116
76	0xbdbb63ae	-0.09149872
77	0x3d3221f7	0.043489423
78	0xbd606b73	-0.05478997
79	0xbf157e1e	-0.58395565
80	0x3e012b71	0.12614228
81	0xbe830964	-0.25593102
82	0xbe86ac31	-0.26303247
83	0xbe0e2208	-0.1388017
84	0x3df60b7f	0.120139115
85	0xbe028112	-0.12744549
86	0xbeab6503	-0.33475503
87	0xbda75a35	-0.081715025
88	0xbe944f15	-0.28966585
89	0x3d63ff96	0.055663668
90	0xbe0b96d6	-0.13631758
91	0xbed540f5	-0.4165112
92	0x3d07928f	0.033098754
93	0x3d038cbd	0.03211664
94	0xbeb166bf	-0.34648702
95	0x3df1a21c	0.11798498
96	0xbe183e91	-0.14867617
97	0xbe220639	-0.15822686
98	0xbdb7c738	-0.08973545
99	0xbc96c154	-0.018402733
100	0xbdab8f2c	-0.08376917
101	0x3ae0ce4d	0.0017151326
102	0xbd14e993	-0.036355566
103	0xbcf112d6	-0.029427927
104	0x3d3e1b86	0.046412967
105	0x3b900595	0.0043951967
106	0xbd01d22a	-0.03169457
107	0xbe9bc216	-0.30421513
108	0x3df8c863	0.12147596
109	0x3d3b2618	0.045690626
110	0xbe5eafe6	-0.21746787
111	0xbe07feb1	-0.13280751
112	0xbdcf7a83	-0.10130789
113	0xbeb40351	-0.3515878
114	0x3d8c4cdd	0.06850598
115	0x3db08924	0.086199075
116	0xbdf0bb12	-0.11754431
117	0xbe918660	-0.28422832
118	0xbe1b4cb2	-0.15165976
119	0x3e008df1	0.12554146
120	0xbe808fa3	-0.25109586
121	0x3d9143f2	0.07093038
122	0x3de2c2dd	0.110723235
123	0x3e859ed5	0.26097742
124	0xbd284778	-0.041083783
125	0x3bda0f5d	0.0066546635
126	0xbd985db7	-0.0743975
127	0x3e3630ad	0.17792006
128	0xbcd77f3f	-0.026305793
129	0xbe0a57f6	-0.13510117
130	0xbcc349c0	-0.023838878
131	0xbda57a09	-0.08079917
132	0xbde7b8bf	-0.113145344
133	0xbe64a3af	-0.22328065
134	0xbde2eb4c	-0.110800356
135	0xbb696e0e	-0.0035618576
136	0xbe27f1aa	-0.16400781
137	0xbe62a14d	-0.22131844
138	0x3db5a270	0.08868873
139	0xbed97207	-0.42469808
140	0x3cbf5042	0.0233537
141	0x3e0e2131	0.13879849
142	0xbb8f293a	-0.0043689283
143	0xbe17e317	-0.14832722
144	0xbe09c3e3	-0.13453631
145	0xbc0f503f	-0.0087471595
146	0x3cc6ff56	0.024291676
147	0xbd831cd6	-0.064019844
148	0x3b37d572	0.0028050807
149	0x3d8ce9a5	0.06880502
150	0xbefa3ab4	-0.48872912
151	0x3c9c2f72	0.019065592
152	0xbe8d6e2f	-0.27623126
153	0x3e287fe3	0.16455035
154	0x3e4fe017	0.20300327
155	0xbe566e10	-0.20940423
156	0x3d96155d	0.073282935
157	0x3c149838	0.009069495
158	0x3e076581	0.13222314
159	0x3e1a991c	0.15097469
160	0xbdd15108	-0.102205336
161	0xbc77586d	-0.015096766
162	0xbe6ad111	-0.22931315
163	0x3dd67fa2	0.10473563
164	0x3e09a0f4	0.13440305
165	0x3e2503dc	0.16114753
166	0x3e0fecf8	0.1405524
167	0xbba30f5a	-0.0049761953
168	0xbdd7ed77	-0.1054334
169	0xbe172a66	-0.14762267
170	0xbe86926e	-0.26283592
171	0x3cc20465	0.023683736
172	0x3a861405	0.0010229355
173	0x3af620c9	0.0018778081
174	0xbe248452	-0.16066101
175	0xbec64823	-0.3872691
176	0x3e1c949e	0.15291068
177	0xbe84a7f4	-0.25909388
178	0xbd3a52ac	-0.045489
179	0x3e22c5f2	0.15895823
180	0x3ca108e0	0.019657552
181	0x3ea49a1b	0.32148823
182	0xbe92d097	-0.28674766
183	0x3d98e8ec	0.07466301
184	0xbac792e8	-0.0015226277
185	0xbe49b1ce	-0.19696733
186	0x3d57e5f0	0.05270952
187	0x3e6773bf	0.22602747
188	0x3d6860ef	0.056733068
189	0x3d83cdd2	0.064357415
190	0x3dd3c67e	0.10340594
191	0x3e8527e3	0.26006994
192	0x3d14960d	0.036275912
193	0xbe82d9e5	-0.25556865
194	0x3dadb25b	0.08481284
195	0xbe5f1ca7	-0.21788274
196	0xbdacd0cf	-0.084382646
197	0xbdf52676	-0.119702265
198	0xbe1622e5	-0.14661749
199	0xbe394128	-0.18091261
200	0xbe91bcc1	-0.2846432
201	0xbe1f3c06	-0.15550241
202	0xbe047a6c	-0.12937325
203	0x3e83e64e	0.25761646
204	0xbe2d24c8	-0.16908562
205	0x3de63a38	0.11241573
206	0x3e34f683	0.17672162
207	0xbe1bc2ae	-0.15210983
208	0xbe1f7b25	-0.1557432
209	0xbdf4ce2a	-0.11953385
210	0x3d20fa97	0.03930148
211	0xbe04126b	-0.12897651
212	0x3d7bb926	0.06145587
213	0x3d8c4a2c	0.06850085
214	0x3d4d5da7	0.050138142
215	0x3db50614	0.0883905
216	0x3e128fef	0.14312719
217	0xbe96f95d	-0.29487124
218	0x3e12de07	0.14342509
219	0xbc82cb23	-0.015966004
220	0x3e9ff136	0.31238717
221	0xbe4e762f	-0.20162271
222	0xbdb269d9	-0.08711595
223	0xbe518d2c	-0.20464009
224	0x3dc88662	0.097912565
225	0xbca2a17d	-0.019852394
226	0x3c81a36c	0.015824996
227	0x3e604a3c	0.21903318
228	0xbc58d52e	-0.01323442
229	0x3ea149b5	0.31501547
230	0xbe47dd5c	-0.19518036
231	0xbe5ba2fa	-0.2144889
232	0x3d260c61	0.04053915
233	0xbd2367c7	-0.03989389
234	0xbdcf4641	-0.10120822
235	0xbd0ad9f0	-0.033899248
236	0xbdc27f52	-0.09496941
237	0xbdbd441b	-0.09241506
238	0xbe8757b7	-0.2643411
239	0xbd264b67	-0.040599253
240	0xbc004f7d	-0.0078314515
241	0x3e1637d8	0.1466974
242	0xbebcc1c5	-0.36866584
243	0xbc0bbcae	-0.008528871
244	0x3df8da7b	0.12151047
245	0x3d9b56b2	0.07584895
246	0xbe013e27	-0.12621365
247	0xbd1e0d32	-0.038586803
248	0xbe647f0c	-0.2231409
249	0xbcd13cb3	-0.025541639
250	0xbf11112a	-0.56666815
251	0x3d94f46d	0.07273183
252	0xbf051302	-0.5198213
253	0x3e81e8e8	0.25373006
254	0x3ea6c50e	0.32572216
255	0xbedab0c1	-0.42712978

fc2.bias f4 [64]
0	0xbd027761	-0.03185213
1	0xbd8a4513	-0.06751456
2	0x3c89f60c	0.016840957
3	0x3d8fedb1	0.07027758
4	0x3cda1d75	0.026625374
5	0xbde91a2d	-0.11381946
6	0xbd903f35	-0.07043306
7	0xbca6c7f5	-0.020359019
8	0x3de1a80b	0.1101838
9	0x3de479d9	0.11156053
10	0xbdddf627	-0.108379655
11	0x3df7a6eb	0.12092384
12	0x3d2d75ad	0.042348552
13	0xbc671f3e	-0.01410657
14	0xbd9b7da8	-0.075923264
15	0x3e2553fd	0.1614532
16	0xbc356106	-0.0110704955
17	0x3d3e3734	0.046439365
18	0xbde3cbd6	-0.11122863
19	0x3d86e442	0.065865055
20	0x3d7581bf	0.05993819
21	0x3e824cd2	0.25449234
22	0xbdd375f2	-0.10325231
23	0xbdf8c0e7	-0.12146168
24	0xbe285b50	-0.16441083
25	0xbd75dd1c	-0.06002532
26	0x3d678711	0.056525294
27	0xbd81ba51	-0.06334365
28	0xbd80f08f	-0.06295883
29	0x3cdf1677	0.027232392
30	0x3d8cc038	0.068726
31	0xbe069b07	-0.13145076
32	0xbcced502	-0.025248054
33	0x3d00611d	0.031342614
34	0x3df2eea0	0.1186192
35	0xbe01e1f4	-0.1268385
36	0xbdbf6bca	-0.09346731
37	0xbdf00ddc	-0.117213935
38	0xbcd02659	-0.02540891
39	0xbda984a0	-0.08277249
40	0xbe04b6f9	-0.12960424
41	0x3d3e6016	0.046478353
42	0x3e69e16d	0.228399
43	0xbd31da3d	-0.04342102
44	0xbd3e3393	-0.046435904
45	0xbd5ae490	-0.05344063
46	0xbd7fde8d	-0.0624681
47	0xbdf13db0	-0.11779344
48	0x3d8a7ec8	0.06762463
49	0xbe3a0e5b	-0.18169539
50	0xbd909a60	-0.07060695
51	0x3ceca86b	0.028888902
52	0xbe1f8984	-0.15579802
53	0xbde0bd9f	-0.10973667
54	0xbd89807d	-0.0671396
55	0xbe4910db	-0.19635336
56	0xbe49047f	-0.19630621
57	0xbdd7559f	-0.10514378
58	0x3d7728a2	0.060341485
59	0xbddb51e0	-0.10708976
60	0xbc8e068a	-0.017337102
61	0x3c988490	0.018617898
62	0x3db1a358	0.086737335
63	0xbd46e465	-0.048557658

fc3.weight f4 [4, 64]
0	0x3e11aefe	0.1422691
1	0x3f03952b	0.5139949
2	0x3d2ccfa0	0.042190194
3	0x3d123095	0.035690863
4	0x3d79af5c	0.06095825
5	0xbe4c98a5	-0.19980104
6	0x3eb030ea	0.34412318
7	0xbdd2eb19	-0.102987476
8	0x3d2a6ea6	0.04160943
9	0x3cd9db59	0.02659385
10	0x3da1fc56	0.079094574
11	0x3e206c99	0.15666427
12	0xbbc58b45	-0.006028565
13	0xbdba00dc	-0.09082195
14	0x3e206f5b	0.15667479
15	0xbe107433	-0.14106826
16	0xbe2d0033	-0.16894607
17	0xbd2ee8ff	-0.04270267
18	0x3b82e88f	0.0039950083
19	0x3e129a92	0.14316776
20	0x3e995cb1	0.2995353
21	0x3d9f2cc1	0.07772208
22	0xbd6f19a8	-0.058374077
23	0xbe4d71e7	-0.20062982
24	0xbebc0783	-0.3672448
25	0xbe39a472	-0.18129137
26	0xbabe74b5	-0.0014530631
27	0x3d2a3bf8	0.041561097
28	0x3dd3e882	0.10347082
29	0xbc94630f	-0.018113641
30	0xbe9a4bdf	-0.3013601
31	0xbe0325f2	-0.12807444
32	0xbe2d3657	-0.1691526
33	0x3e3a3b53	0.18186693
34	0x3d8f91c0	0.070102215
35	0x3d0c4014	0.034240797
36	0xbe1bd457	-0.1521772
37	0x3cbfc771	0.02341053
38	0x3e9d2642	0.3069325
39	0x3d4ce493	0.050022673
40	0x3d6a072f	0.057135757
41	0x3dd88ae6	0.10573368
42	0x3c92ba56	0.017911118
43	0x3e1b196b	0.15146415
44	0x3dcebff9	0.1009521
45	0x3d9159af	0.07097184
46	0x3d3b0e15	0.045667727
47	0x3e0af95d	0.13571687
48	0x3d1cbe72	0.03826756
49	0x3e2503fa	0.16114798
50	0xbe4c75bf	-0.19966792
51	0xbe90e571	-0.2830005
52	0x3d793aa8	0.060846955
53	0x3d80aaff	0.06282615
54	0xbd3521d7	-0.044221725
55	0xbddaf576	-0.10691349
56	0xbe2368c3	-0.15957932
57	0x3e7a1b10	0.24424386
58	0x3d62dd59	0.055386875
59	0xbd9e0e27	-0.07717543
60	0x3e7a541f	0.24446152
61	0x3e79099d	0.24320073
62	0xbd82364a	-0.06358011
63	0x3ed75282	0.42055136
64	0x3def6293	0.116887234
65	0x3e119848	0.14218247
66	0x3e89c49e	0.2690782
67	0xbf13740a	-0.57598937
68	0x3e93bed0	0.28856516
69	0xbd96ac52	-0.07357086
70	0xbe3156e5	-0.17318304
71	0x3cfa75ef	0.030573813
72	0xbd8a9236	-0.06766169
73	0x3dade88a	0.08491619
74	0x3e4389af	0.19095491
75	0x3eb02e98	0.34410548
76	0xbe7470a4	-0.23871094
77	0xbd0e882b	-0.03479783
78	0x3d14d462	0.036335357
79	0xbbb75c19	-0.0055956957
80	0xbee24931	-0.44196466
81	0xbe024db0	-0.12724948
82	0xbd89e097	-0.0673229
83	0xbcdfb588	-0.02730824
84	0x3d5ea010	0.054351866
85	0x3de86da4	0.11349037
86	0x3dcf82f3	0.101323985
87	0xbd576b26	-0.05259242
88	0x3e891f6a	0.2678178
89	0x3db909e4	0.090350896
90	0xbb689abe	-0.0035492624
91	0x3eced6de	0.40398306
92	0xbef05975	-0.4694325
93	0x3da5df13	0.08099189
94	0x3e8faa33	0.2805954
95	0x3df3d8c6	0.119065806
96	0x3ee934c3	0.45548066
97	0x3e0e6b7d	0.13908191
98	0x3dbe65ac	0.09296736
99	0xbe2edc29	-0.17076172
100	0x3d2c4a29	0.042062912
101	0xbd01a766	-0.031653784
102	0x3dff3db8	0.12462944
103	0x3e4fb854	0.2028516
104	0x3d93cd34	0.07216874
105	0x3e68123c	0.22663206
106	0xbc9ed961	-0.019390764
107	0x3e201ca5	0.15635927
108	0xbe300e4d	-0.17192955
109	0x3d071f7b	0.032989006
110	0x3d864869	0.0655678
111	0xbeb2cf10	-0.349236
112	0xbd7519cd	-0.05983906
113	0xbf0d7f97	-0.5527281
114	0x3e29fc58	0.16600168
115	0x3e2f208d	0.17102261
116	0x3e4f7a9c	0.20261616
117	0x3e5a4caa	0.21318308
118	0x3c93b66a	0.018031318
119	0xbdcbb7cd	-0.099471666
120	0xbe121f52	-0.1426976
121	0xbeba9014	-0.36438048
122	0x3b2ab289	0.0026046357
123	0xbd5870eb	-0.052842062
124	0xbccf4e89	-0.025306003
125	0x3d763e74	0.060118154
126	0xbd71f5c4	-0.05907227
127	0xbe92799e	-0.28608412
128	0xbd44931d	-0.04799186
129	0x3e9a85bc	0.30180156
130	0x3eb944a6	0.36185187
131	0x3eec9bf4	0.46212733
132	0x3e835f8b	0.2565883
133	0x3e7525c9	0.23940195
134	0x3d670da7	0.056409504
135	0x3d87416a	0.066042736
136	0x3d2a7bca	0.04162196
137	0x3e780cf1	0.24223687
138	0xbed766c7	-0.420706
139	0x3e81a700	0.25322723
140	0x3e9714cb	0.2950805
141	0xbe436be9	-0.19084133
142	0xbe2e6993	-0.17032461
143	0x3d910664	0.07081297
144	0x3ece9d2e	0.40354294
145	0xbdfaf810	-0.122543454
146	0xbd70fcdd	-0.0588349
147	0x3d71d248	0.05903843
148	0xbcf7a7b8	-0.030231342
149	0x3d53a42c	0.05167024
150	0x3d3485b7	0.044072833
151	0xbe1490f9	-0.14508428
152	0xbea6be1b	-0.32566914
153	0x3e377e31	0.17919232
154	0xbe878558	-0.2646892
155	0xbe3b5eca	-0.18297878
156	0x3eb986ad	0.36235562
157	0x3e90ee09	0.28306606
158	0x3d04770a	0.032340087
159	0x3dfdcd87	0.12392717
160	0xbf0cc4a4	-0.5498755
161	0xbe570aa7	-0.21000157
162	0xbc4cd263	-0.012501332
163	0x3dcdcbca	0.10048635
164	0x3e725ce0	0.23668242
165	0x3e532c0d	0.20622273
166	0xbe5a63ce	-0.21327135
167	0xbdf17cd4	-0.11791387
168	0x3e9d6828	0.30743527
169	0xbdb341f8	-0.08752817
170	0x3dbb1df8	0.091365755
171	0x3cabacae	0.020956364
172	0xbdcb5ad5	-0.09929434
173	0xbdd24891	-0.10267747
174	0x3e77b5cd	0.24190445
175	0x3e2a3242	0.16620734
176	0x3e8bda24	0.27314866
177	0x3e7eab66	0.24870071
178	0xbda6b91e	-0.08140777
179	0x3dc5a74c	0.0965105
180	0xbe0f6e01	-0.14006807
181	0x3e7558c8	0.23959649
182	0x3e82b7a9	0.25530747
183	0x3b72b072	0.003703144
184	0xbe2be3fc	-0.16786188
185	0xbd8dfb4a	-0.06932695
186	0x3d86188f	0.06547653
187	0xbe4c2d1e	-0.19939086
188	0xbec7e105	-0.39038864
189	0x3cc2ad2a	0.023764212
190	0xbe23e38f	-0.16004775
191	0x3e314a65	0.17313536
192	0x3e2fe8ea	0.17178693
193	0x3e1f8ca9	0.15581001
194	0xbdff7e09	-0.12475211
195	0x3d9b3100	0.075777054
196	0xbdf0aae6	-0.11751346
197	0x3e0d9783	0.13827328
198	0xbe6b7525	-0.22993906
199	0xbe8408e3	-0.2578803
200	0x3ce5c5f2	0.02804849
201	0xbbbe4115	-0.005806098
202	0xbe83198b	-0.25605425
203	0xbe957945	-0.29194084
204	0xbd21d983	-0.039514076
205	0x3e4f77d5	0.20260556
206	0x3e7bcd78	0.24590099
207	0x3dbdafcd	0.09262047
208	0x3e8cdb0b	0.27510867
209	0x3eab7813	0.33490047
210	0x3d6efc7f	0.058346268
211	0x3e51f094	0.2050193
212	0x39b0d51a	0.0003372811
213	0x3e028579	0.12746228
214	0xbdac0b74	-0.08400622
215	0x3e94e432	0.2908035
216	0xbe686c89	-0.22697653
217	0xbeab4ef8	-0.33458686
218	0xbdc33f06	-0.09533505
219	0x3e742c49	0.23845018
220	0xbe739a65	-0.23789366
221	0xbe942ca0	-0.28940296
222	0xbe1fdac1	-0.15610792
223	0x3e53f3af	0.20698427
224	0xbe1f9416	-0.15583834
225	0xbe04bfae	-0.12963745
226	0x3baed7cc	0.0053357836
227	0x3c2bb716	0.010480663
228	0xbe51c3d8	-0.20484865
229	0xbe7a2e0b	-0.24431626
230	0xbc03c4fc	-0.00804257
231	0xbe7d34d0	-0.24727178
232	0xbe932617	-0.28739998
233	0x3e9ba597	0.30399773
234	0x3dc9db30	0.0985626
235	0xbe196558	-0.14980066
236	0x3eb61960	0.35566235
237	0xbd96fc6e	-0.07372366
238	0x3d7d152c	0.06178777
239	0x3d2aa892	0.041664667
240	0xbce14e88	-0.027503267
241	0x3db84e18	0.0899927
242	0x3ec13ff9	0.3774412
243	0x3ed5af3c	0.41735256
244	0xbea658cb	-0.3248962
245	0xbe8d098d	-0.2754635
246	0x3e1987fa	0.14993277
247	0xbcf4256c	-0.029803
248	0xbc533129	-0.012890139
249	0xbdd356ed	-0.10319314
250	0x3c665927	0.0140593415
251	0x3d079ede	0.033110492
252	0xbe72eaaa	-0.2372233
253	0x3d35bf84	0.044372097
254	0x3d942826	0.0723422
255	0xbebc6b1a	-0.36800462

fc3.bias f4 [4]
0	0x3e2e5b85	0.170271
1	0x3e29486c	0.16531533
2	0x3df662bd	0.120305516
3	0x3db4e053	0.08831849

state_value.weight f4 [1, 64]
0	0x3ba90799	0.0051583764
1	0x3e95bcd3	0.29245624
2	0x3e5a22d7	0.21302353
3	0xbe980681	-0.29692462
4	0x3e0adb44	0.13560206
5	0x3ebbfc24	0.36715806
6	0xbee53ab4	-0.4477135
7	0xbe278568	-0.16359484
8	0x3dc7c168	0.09753686
9	0x3d8103bc	0.062995404
10	0xbece2477	-0.40262195
11	0x3ea3649f	0.31912705
12	0xbe34433b	-0.17603771
13	0xbdac9ee2	-0.08428742
14	0x3e78f5a0	0.24312449
15	0x3d66e05a	0.056366302
16	0xbe8d45e3	-0.27592382
17	0x3cd77b39	0.026303874
18	0xbbe594fc	-0.0070062857
19	0x3ddec6c4	0.10877755
20	0x3e1858bd	0.14877601
21	0x3d6e2627	0.058141854
22	0x3dfd497d	0.123675324
23	0xbed1f912	-0.41010338
24	0x3e748d0a	0.23881927
25	0x3e9df730	0.30852652
26	0xbed7c7b4	-0.4214455
27	0x3e3226cb	0.17397611
28	0xbda224b5	-0.079171576
29	0xbd8ad17c	-0.06778237
30	0xbe482a9a	-0.19547501
31	0x3db18a29	0.0866893
32	0xbe8f8984	-0.28034604
33	0x3d81add6	0.06331985
34	0x3dd68a5a	0.10475607
35	0xbd23c8a0	-0.039986253
36	0x3e3fa3eb	0.18714873
37	0x3d482a84	0.04886867
38	0xbe9d1d50	-0.30686426
39	0xbde9013a	-0.11377187
40	0x3e91f69f	0.2850847
41	0x3d6a1378	0.057147473
42	0x3de4e624	0.11176708
43	0x3e21f262	0.15815118
44	0xbda1dac7	-0.079030566
45	0xbde1c8ae	-0.11024605
46	0x3d5d02ca	0.053957738
47	0xbdfdaf34	-0.12386933
48	0x3df69364	0.12039831
49	0xbe904aa7	-0.28181955
50	0x3eb16a58	0.34651446
51	0xbe8f65d9	-0.2800739
52	0xbe863719	-0.2621391
53	0x3e1a6e1c	0.15081066
54	0x3d042de6	0.032270335
55	0xbe9cf42b	-0.30655035
56	0xbdf424ca	-0.119210795
57	0xbe69b2ae	-0.22822067
58	0x3e25d3c3	0.16194062
59	0xbe836765	-0.2566482
60	0xbea00260	-0.31251812
61	0x3e225c6a	0.15855566
62	0xbdf3aca6	-0.118981645
63	0xbf136d25	-0.57588416
